embedding_thermalizer/embedding_thermalizer/tests/integration/checkpoints/integration_test_checkpoint_step_10.pt (torch, 134144 bytes, 2 tensors)

weight f4 [128, 256]
0.052798904 0.042736962 -0.031427786 0.054016188 0.024812073 0.010444619 0.04579527 -0.040739678
0.061235756 0.03616155 -0.0129442215 0.013722166 -0.002643004 0.022487596 -0.059507124 -0.031927444
-0.0013166815 0.054284647 -0.026725583 0.062458694 0.00047759712 0.04926651 -0.033244304 0.022310913
0.019558772 -0.0383965 0.03924793 0.011738934 -0.04978501 0.0035332218 -0.03881576 -0.043271862
-0.04391759 0.0448965 -0.02926825 -0.042088196 0.012762703 0.042522334 0.052074187 -0.06008619
0.025987819 0.00671266 0.017395742 -0.030674681 -0.031968318 -0.020922668 -0.03381353 0.050500706
-0.032768928 -0.051155746 0.020680748 0.031627953 0.060865782 -0.03167539 0.057796814 -0.032978877
0.031624362 0.0075029805 -0.014565565 0.019818522 -0.05219 -0.007991508 0.023421027 0.038546555
0.04798367 0.015688151 0.041399784 0.0094324425 -0.030482873 0.0260657 0.026754737 0.056742825
-0.015197493 -0.059428953 -0.062462337 -0.036254153 0.032450058 0.025774539 0.009272993 -0.041890725
0.008808024 -0.03390976 0.020148337 -0.009455979 -0.055709913 0.056632303 0.05735001 -0.057907157
-0.0059805736 0.06182158 0.009708457 -0.015447386 0.034360506 -0.026524886 -0.008088887 -0.040175803
0.003313385 -0.029084526 -0.0019755065 -0.025022842 0.012937434 -0.057324506 -0.021892808 -0.055921033
-0.036353014 0.032564625 -0.050239228 0.031201974 0.054618962 0.020049244 0.0032750815 0.050945632
-0.021937594 -0.02839975 -0.035999753 0.03379322 -0.04730276 -0.02306763 0.002349615 -0.01259201
0.04110668 -0.05126337 0.049987026 -0.0029692128 0.03616768 0.012461379 0.005224414 -0.055542804
-0.0053874627 0.055626184 0.03332647 -0.04445094 -0.028509885 -0.05424557 -0.0361154 0.059987172
-0.023207925 -0.04734984 -0.0015564486 -0.022795618 -0.040071502 -0.02312868 -0.061326854 0.044877507
0.024185717 0.04798071 -0.051023543 0.010851696 -0.062340796 -0.051910363 -0.061402723 -0.016144805
0.054295935 -0.010068543 0.0019096881 -0.011484094 0.024787359 -0.05059409 0.050646067 -0.03651595
-0.054646768 -0.0285846 0.030204691 0.061553083 -0.009304635 0.05404406 -0.055694856 -0.027198985
0.04967408 -0.02956631 0.035166994 0.029923484 -0.042507477 -0.047774367 -0.02720461 -0.0028676614
0.048164636 -0.011486314 0.019757308 0.04197611 -0.040182382 -0.0030504987 0.013495214 0.029891178
0.0314745 0.028932758 0.010419697 -0.01828073 0.035544686 -0.05579678 0.051923797 -0.044880316
-0.030669264 -0.03395845 0.017652042 0.0034924895 -0.019006997 0.05934809 -0.04319033 -0.013506882
0.040461004 -0.0136966705 -0.057415612 0.032023884 -0.03120029 0.057746515 0.042938866 -0.02414032
0.013573989 -0.002393864 -0.030588992 -0.061018772 0.021410614 -0.033849195 -0.054334253 0.037990466
0.050787218 0.04380943 0.027056158 -0.020653658 -0.021698147 -0.0018381178 -0.04493589 -0.05890531
-0.045715973 0.03893712 0.046533756 -0.053858936 -0.05001016 -0.052840337 0.0443305 0.005244389
0.057982616 0.020001195 -0.028255984 0.05555649 0.02187936 -0.05710704 -0.032756805 0.02775243
0.0005008653 -0.04235021 0.006930545 -0.02886764 -0.04976336 -0.041758478 0.049053855 -0.026040472
0.0325009 -0.017907396 -0.016875178 -0.03673605 0.03971558 0.05753374 -0.050702058 -0.036227323
00000000: aa43 583d f40c 2f3d 6cba 00bd 1440 5d3d
00000010: b042 cb3c e81f 2b3c d293 3b3d a6de 26bd
00000020: 58d2 7a3d 221e 143d 0014 54bc f0d2 603c
00000030: 4036 2dbb e837 b83c bebd 73bd 5ac6 02bd
00000040: 8094 acba 9459 5e3d 9cef dabc b0d4 7f3d
00000050: 0066 fa39 aecb 493d 2e2b 08bd 60c5 b63c
00000060: b839 a03c a645 1dbd 70c2 203d a854 403c
00000070: 5eeb 4bbd a08d 673b 46fd 1ebd d63d 31bd
00000080: eee2 33bd 64e5 373d f8c3 efbc ac64 2cbd
00000090: a81a 513c e62b 2e3d be4b 553d f01c 76bd
000000a0: 68e4 d43c e0f5 db3b 8481 8e3c 7849 fbbc
000000b0: 36f1 02bd 0466 abbc 0e80 0abd d4d9 4e3d
000000c0: b638 06bd b088 51bd ac6a a93c 508c 013d
000000d0: 664e 793d 0ebe 01bd 5abc 6c3d dc14 07bd
000000e0: 8c88 013d 90db f53b 68a4 6ebc 745a a23c
000000f0: 2ec5 55bd d0ee 02bc 74dd bf3c fee2 1d3d
00000100: 868a 443d 7084 803c d292 293d 888a 1a3c
00000110: 38b7 f9bc bc87 d53c c02c db3c 2a6b 683d
00000120: e8fe 78bc c66b 73bd 82d8 7fbd 3c7f 14bd
00000130: 5aea 043d 2025 d33c c0ed 173c 9c95 2bbd
00000140: 884f 103c f6e4 0abd 200e a53c 40ed 1abc
00000150: 1430 64bd 46f7 673d d8e7 6a3d 0e30 6dbd
00000160: b0f8 c3bb a038 7d3d 3810 1f3c 0817 7dbc
00000170: 9abd 0c3d b84a d9bc 4087 04bc 628f 24bd
00000180: 6025 593b ac42 eebc 8077 01bb b4fc ccbc
00000190: 88f7 533c 1acd 6abd 8c58 b3bc 740d 65bd
000001a0: e6e6 14bd 7c62 053d a6c7 4dbd 489b ff3c
000001b0: 22b8 5f3d 503e a43c c0a2 563b 5eac 503d
000001c0: 78b6 b3bc 98a6 e8bc 7a74 13bd c26a 0a3d
000001d0: 8ac0 41bd 54f8 bcbc 00fc 193b b84e 4ebc
000001e0: 7a5f 283d 8af9 51bd 32bf 4c3d 2097 42bb
000001f0: 9024 143d d02a 4c3c 9031 ab3b da80 63bd
00000200: 5089 b0bb 48d8 633d 5681 083d 3012 36bd
00000210: 908d e9bc 9a30 5ebd beed 13bd 1cb5 753d
00000220: 8c1e bebc e8f1 41bd c001 ccba e0bd babc
00000230: 0422 24bd 5c78 bdbc de31 7bbd 7ad1 373d
00000240: 2021 c63c 6c87 443d 10fe 50bd 50cb 313c
00000250: 1059 7fbd f69f 54bd 6c81 7bbd 1c42 84bc
00000260: 6a65 5e3d 88f6 24bc 804e fa3a c827 3cbc
00000270: dc0e cb3c c03b 4fbd 4072 4f3d c091 15bd
00000280: 4ad5 5fbd 402a eabc d46f f73c 161f 7c3d
00000290: 7872 18bc 4e5d 5d3d 4a20 64bd 68d0 debc
000002a0: 0c77 4b3d 0c35 f2bc 440b 103d 1822 f53c
000002b0: 521c 2ebd 0eaf 43bd 34dc debc 60ef 3bbb
000002c0: 4848 453d 1831 3cbc 14da a13c 24ef 2b3d
000002d0: 4896 24bd e0ea 47bb 081b 5d3c 58de f43c
000002e0: 68eb 003d 6404 ed3c 60b7 2a3c 78c1 95bc
000002f0: 4e97 113d 2a8b 64bd 0cae 543d 6cd4 37bd
00000300: 1c3e fbbc 0418 0bbd 049b 903c 40e2 643b
00000310: 90b4 9bbc fc16 733d 58e8 30bd f84b 5dbc
00000320: 70ba 253d 0068 60bc a22c 6bbd 7a2b 033d
00000330: c097 ffbc 9c87 6c3d aae0 2f3d ecc1 c5bc
00000340: 7065 5e3c 60e2 1cbb c495 fabc d2ee 79bd
00000350: 5065 af3c 74a5 0abd 988d 5ebd e49b 1b3d
00000360: 4206 503d 8471 333d e0a4 dd3c dc31 a9bc
00000370: 50c0 b1bc 00ed f0ba b20e 38bd b246 71bd
00000380: ac40 3bbd 887c 1f3d 2e9a 3e3d 309b 5cbd
00000390: 74d7 4cbd 1c6f 58bd e693 353d 20d9 ab3b
000003a0: 2e7f 6d3d 8cd9 a33c 1879 e7bc 348f 633d
000003b0: 583c b33c 12e9 69bd 002c 06bd 1059 e33c
000003c0: 804c 033a 6a77 2dbd a019 e33b d47b ecbc
000003d0: aad4 4bbd f00a 2bbd b2ec 483d d452 d5bc
000003e0: aa1f 053d 88b2 92bc d03d 8abc 8a78 16bd
000003f0: ceac 223d 80a8 6b3d f6ac 4fbd 1a63 14bd

bias f4 [128]
-0.060160853 0.04979725 -0.0063363537 0.017188959 -0.048770383 0.011190042 0.017832704 -0.030823484
0.011594273 0.004373029 -0.039405316 0.059669405 -0.026523307 0.059134446 0.040800303 0.038597062
0.015746303 0.026994817 -0.0054711625 -0.0062792674 0.013330936 0.028158754 0.010419056 0.03545487
0.022588223 0.0060669407 0.05875825 0.037520826 0.040588766 0.05802232 -0.008506089 -0.059046365
-0.03012161 -0.0010657981 0.04915589 0.037007324 -0.0033311322 0.0277896 0.03396707 0.019306988
-0.04886721 -0.030432008 -0.04491034 -0.022757865 0.026593082 -0.048128523 -0.0035334378 0.0014411509
-0.02637142 -0.002426751 -0.024113148 0.05766698 -0.051544964 -0.029332094 0.045696452 -0.05208014
-0.057083227 -0.05005701 0.059778593 0.052067906 0.04111994 -0.021366417 -0.06086845 -0.0074611157
-0.045291044 0.022855267 -0.015782468 0.005452171 -0.014213562 0.029325344 0.018152647 0.057467796
-0.0025713667 -0.035321593 -0.043115243 0.01765728 0.030784652 0.021093763 0.041897886 0.015945785
0.023055434 -0.03665614 0.05333358 0.032158077 0.021641262 0.00022083521 0.027535446 -0.043499075
-0.054015897 -0.024475478 0.04111804 0.024701573 -0.04252539 0.037139997 0.016381703 -0.058763012
0.00846976 0.048813634 -0.04040163 0.02770739 0.05409658 -0.039558902 -0.015946403 0.004764557
0.020732574 0.045401014 -0.058209144 0.043621913 -0.009804726 -0.033603996 0.058693565 0.0527028
0.017862849 0.054826275 0.061830826 -0.03210637 -0.061459124 0.0060780495 -0.054917015 0.040707253
-0.006232515 -0.032806516 0.0065637603 -0.041982755 -0.053046986 -0.05396816 0.041900113 0.03171953
00000000: 3a6b 76bd 34f8 4b3d 30a1 cfbb dccf 8c3c
00000010: 74c3 47bd 7056 373c e415 923c 8881 fcbc
00000020: e8f5 3d3c a04b 8f3b 7867 21bd e867 743d
00000030: 6847 d9bc f636 723d 381e 273d f417 1e3d
00000040: 64fe 803c 3c24 dd3c 7047 b3bb 50c2 cdbb
00000050: 006a 5a3c 30ad e63c b0b4 2a3c 2039 113d
00000060: f00a b93c 30cd c63b 7eac 703d 70af 193d
00000070: 6840 263d d0a8 6d3d 205d 0bbc 9ada 71bd
00000080: 98c1 f6bc 40b2 8bba b057 493d fe94 173d
00000090: 204f 5abb 04a7 e33c 0e21 0b3d b029 9e3c
000000a0: fc28 48bd 8c4c f9bc e8f3 37bd b46e babc
000000b0: bcd9 d93c 6a22 45bd 4091 67bb 00e5 bc3a
000000c0: e008 d8bc 200a 1fbb f088 c5bc 3634 6c3d
000000d0: d020 53bd dc49 f0bc 342c 3b3d fc51 55bd
000000e0: 1ad0 69bd 9408 4dbd 66da 743d 2845 553d
000000f0: 626d 283d a008 afbc 3251 79bd 607c f4bb
00000100: 1a83 39bd f83a bb3c 3c4a 81bc 20a8 b23b
00000110: 00e0 68bc b43b f03c dcb4 943c 5a63 6b3d
00000120: 6084 28bb 60ad 10bd 9c99 30bd 00a6 903c
00000130: 1830 fc3c d4cc ac3c 1e9d 2b3d bca0 823c
00000140: c0de bc3c c024 16bd 5074 5a3d 30b8 033d
00000150: 0449 b13c 0090 6739 0492 e13c 162c 32bd
00000160: c63f 5dbd cc80 c8bc 646b 283d f45a ca3c
00000170: 1a2f 2ebd 1c20 183d ec32 863c 7cb1 70bd
00000180: c0c4 0a3c cef0 473d 2e7c 25bd 9cfa e23c
00000190: 6094 5d3d 8408 22bd 08a2 82bc 0020 9c3b
000001a0: 5cd7 a93c 6af6 393d b66c 6ebd e4ac 323d
000001b0: 00a4 20bc 58a4 09bd aa68 703d e4de 573d
000001c0: 1c55 923c 8491 603d 5242 7d3d f881 03bd
000001d0: 90bc 7bbd 602a c73b aaf0 60bd a6bc 263d
000001e0: 203a ccbb 2060 06bd d014 d73b 1cf6 2bbd
000001f0: cc47 59bd b80d 5dbd 749f 2b3d 56ec 013d
